[2025-06-07 11:34:41] [Metadata: {'dataset_name': 'MNIST'}] You are a data science expert with deep knowledge of image datasets. Your task is to generate structured, and comprehensive instructions for effectively working with the dataset 'MNIST'. Dataset description: This is an image dataset.

Number of classes: 10
Class distribution:
1    6742
7    6265
3    6131
2    5958
9    5949
0    5923
6    5918
8    5851
4    5842
5    5421
Name: count, dtype: int64

Image Data Handling Requirements:
1. Input Format Requirements:
   - For CNN models: Input must be in (batch, channels, height, width) format
   - For dense/linear layers: Input should be flattened

2. Data Processing Steps:
   a) For flattened input (2D):
      - Calculate dimensions: height = width = int(sqrt(n_features))
      - Verify square dimensions: height * height == n_features
      - Reshape to (N, 1, H, W) for CNNs
   b) For 3D input (N, H, W):
      - Add channel dimension: reshape to (N, 1, H, W)
   c) For 4D input:
      - Verify channel order matches framework requirements

3. Framework-Specific Format:
   - PyTorch: (N, C, H, W)
   - TensorFlow: (N, H, W, C)
   - Convert between formats if necessary

4. Normalization:
   - Scale pixel values to [0, 1] by dividing by 255.0
   - Or standardize to mean=0, std=1


Please perform the following tasks:
1. Describe the recommended data preprocessing steps specific to this dataset.
2. Outline useful feature engineering strategies relevant to the dataset's type and domain.
3. Mention any common challenges or important considerations when working with this dataset type.
4. If this dataset exists on OpenML:
   - Provide the exact dataset name as listed on OpenML.
   - Include the dataset's tag(s) on OpenML.
   - Provide the direct OpenML URL to the dataset.

Return all the above in a structured JSON format matching the following fields:
- dataset_name (str)
- dataset_tag (str)
- dataset_instructions (list of str)

            Below, I am providing a set of parameters that were used on the top-performing models evaluated on the dataset.
            Please generate an instruction for creating a configuration for the dataset based on the following parameters:
            [{83544: OpenML Parameter
================
ID............: 83544
Flow ID.......: 8608
Flow Name.....: keras.wrappers.scikit_learn.KerasClassifier(Reshape,Conv2D,Conv2D,MaxPooling2D,BatchNormalization,Conv2D,Conv2D,MaxPooling2D,BatchNormalization,Conv2D,Conv2D,Conv2D,MaxPooling2D,BatchNormalization,Flatten,Dense,Dropout,Dense,Dropout,Dense)(2)_batch_size
Flow URL......: https://www.openml.org/f/8608
Parameter Name: batch_size
  |__Data Type: None
  |__Default..: 32
  |__Value....: 128, 83545: OpenML Parameter
================
ID............: 83545
Flow ID.......: 8608
Flow Name.....: keras.wrappers.scikit_learn.KerasClassifier(Reshape,Conv2D,Conv2D,MaxPooling2D,BatchNormalization,Conv2D,Conv2D,MaxPooling2D,BatchNormalization,Conv2D,Conv2D,Conv2D,MaxPooling2D,BatchNormalization,Flatten,Dense,Dropout,Dense,Dropout,Dense)(2)_build_fn
Flow URL......: https://www.openml.org/f/8608
Parameter Name: build_fn
  |__Data Type: None
  |__Default..: {"oml-python:serialized_object": "function", "value": "__main__.vggnet"}
  |__Value....: {"oml-python:serialized_object": "function", "value": "__main__.vggnet_emnist_emnist_5_128_False"}, 83546: OpenML Parameter
================
ID............: 83546
Flow ID.......: 8608
Flow Name.....: keras.wrappers.scikit_learn.KerasClassifier(Reshape,Conv2D,Conv2D,MaxPooling2D,BatchNormalization,Conv2D,Conv2D,MaxPooling2D,BatchNormalization,Conv2D,Conv2D,Conv2D,MaxPooling2D,BatchNormalization,Flatten,Dense,Dropout,Dense,Dropout,Dense)(2)_epochs
Flow URL......: https://www.openml.org/f/8608
Parameter Name: epochs
  |__Data Type: None
  |__Default..: 3
  |__Value....: 5, 83547: OpenML Parameter
================
ID............: 83547
Flow ID.......: 8608
Flow Name.....: keras.wrappers.scikit_learn.KerasClassifier(Reshape,Conv2D,Conv2D,MaxPooling2D,BatchNormalization,Conv2D,Conv2D,MaxPooling2D,BatchNormalization,Conv2D,Conv2D,Conv2D,MaxPooling2D,BatchNormalization,Flatten,Dense,Dropout,Dense,Dropout,Dense)(2)_layer0
Flow URL......: https://www.openml.org/f/8608
Parameter Name: layer0
  |__Data Type: None
  |__Default..: {"class_name": "Reshape", "config": {"batch_input_shape": [null, 3072], "dtype": "float32", "name": "reshape_1", "target_shape": [32, 32, 3], "trainable": true}}
  |__Value....: {"class_name": "Reshape", "config": {"batch_input_shape": [null, 784], "dtype": "float32", "name": "reshape_72", "target_shape": [28, 28, 1], "trainable": true}}, 83548: OpenML Parameter
================
ID............: 83548
Flow ID.......: 8608
Flow Name.....: keras.wrappers.scikit_learn.KerasClassifier(Reshape,Conv2D,Conv2D,MaxPooling2D,BatchNormalization,Conv2D,Conv2D,MaxPooling2D,BatchNormalization,Conv2D,Conv2D,Conv2D,MaxPooling2D,BatchNormalization,Flatten,Dense,Dropout,Dense,Dropout,Dense)(2)_layer1
Flow URL......: https://www.openml.org/f/8608
Parameter Name: layer1
  |__Data Type: None
  |__Default..: {"class_name": "Conv2D", "config": {"activation": "relu", "activity_regularizer": null, "bias_constraint": null, "bias_initializer": {"class_name": "Zeros", "config": {}}, "bias_regularizer": null, "data_format": "channels_last", "dilation_rate": [1, 1], "filters": 64, "kernel_constraint": null, "kernel_initializer": {"class_name": "VarianceScaling", "config": {"distribution": "uniform", "mode": "fan_avg", "scale": 1.0, "seed": null}}, "kernel_regularizer": null, "kernel_size": [3, 3], "name": "conv2d_1", "padding": "same", "strides": [1, 1], "trainable": true, "use_bias": true}}
  |__Value....: {"class_name": "Conv2D", "config": {"activation": "relu", "activity_regularizer": null, "bias_constraint": null, "bias_initializer": {"class_name": "Zeros", "config": {}}, "bias_regularizer": null, "data_format": "channels_last", "dilation_rate": [1, 1], "filters": 64, "kernel_constraint": null, "kernel_initializer": {"class_name": "VarianceScaling", "config": {"distribution": "uniform", "mode": "fan_avg", "scale": 1.0, "seed": null}}, "kernel_regularizer": null, "kernel_size": [3, 3], "name": "conv2d_498", "padding": "same", "strides": [1, 1], "trainable": false, "use_bias": true}}, 83549: OpenML Parameter
================
ID............: 83549
Flow ID.......: 8608
Flow Name.....: keras.wrappers.scikit_learn.KerasClassifier(Reshape,Conv2D,Conv2D,MaxPooling2D,BatchNormalization,Conv2D,Conv2D,MaxPooling2D,BatchNormalization,Conv2D,Conv2D,Conv2D,MaxPooling2D,BatchNormalization,Flatten,Dense,Dropout,Dense,Dropout,Dense)(2)_layer10
Flow URL......: https://www.openml.org/f/8608
Parameter Name: layer10
  |__Data Type: None
  |__Default..: {"class_name": "Conv2D", "config": {"activation": "relu", "activity_regularizer": null, "bias_constraint": null, "bias_initializer": {"class_name": "Zeros", "config": {}}, "bias_regularizer": null, "data_format": "channels_last", "dilation_rate": [1, 1], "filters": 256, "kernel_constraint": null, "kernel_initializer": {"class_name": "VarianceScaling", "config": {"distribution": "uniform", "mode": "fan_avg", "scale": 1.0, "seed": null}}, "kernel_regularizer": null, "kernel_size": [3, 3], "name": "conv2d_6", "padding": "same", "strides": [1, 1], "trainable": true, "use_bias": true}}
  |__Value....: {"class_name": "Conv2D", "config": {"activation": "relu", "activity_regularizer": null, "bias_constraint": null, "bias_initializer": {"class_name": "Zeros", "config": {}}, "bias_regularizer": null, "data_format": "channels_last", "dilation_rate": [1, 1], "filters": 256, "kernel_constraint": null, "kernel_initializer": {"class_name": "VarianceScaling", "config": {"distribution": "uniform", "mode": "fan_avg", "scale": 1.0, "seed": null}}, "kernel_regularizer": null, "kernel_size": [3, 3], "name": "conv2d_503", "padding": "same", "strides": [1, 1], "trainable": true, "use_bias": true}}, 83550: OpenML Parameter
================
ID............: 83550
Flow ID.......: 8608
Flow Name.....: keras.wrappers.scikit_learn.KerasClassifier(Reshape,Conv2D,Conv2D,MaxPooling2D,BatchNormalization,Conv2D,Conv2D,MaxPooling2D,BatchNormalization,Conv2D,Conv2D,Conv2D,MaxPooling2D,BatchNormalization,Flatten,Dense,Dropout,Dense,Dropout,Dense)(2)_layer11
Flow URL......: https://www.openml.org/f/8608
Parameter Name: layer11
  |__Data Type: None
  |__Default..: {"class_name": "Conv2D", "config": {"activation": "relu", "activity_regularizer": null, "bias_constraint": null, "bias_initializer": {"class_name": "Zeros", "config": {}}, "bias_regularizer": null, "data_format": "channels_last", "dilation_rate": [1, 1], "filters": 256, "kernel_constraint": null, "kernel_initializer": {"class_name": "VarianceScaling", "config": {"distribution": "uniform", "mode": "fan_avg", "scale": 1.0, "seed": null}}, "kernel_regularizer": null, "kernel_size": [3, 3], "name": "conv2d_7", "padding": "same", "strides": [1, 1], "trainable": true, "use_bias": true}}
  |__Value....: {"class_name": "Conv2D", "config": {"activation": "relu", "activity_regularizer": null, "bias_constraint": null, "bias_initializer": {"class_name": "Zeros", "config": {}}, "bias_regularizer": null, "data_format": "channels_last", "dilation_rate": [1, 1], "filters": 256, "kernel_constraint": null, "kernel_initializer": {"class_name": "VarianceScaling", "config": {"distribution": "uniform", "mode": "fan_avg", "scale": 1.0, "seed": null}}, "kernel_regularizer": null, "kernel_size": [3, 3], "name": "conv2d_504", "padding": "same", "strides": [1, 1], "trainable": true, "use_bias": true}}, 83551: OpenML Parameter
================
ID............: 83551
Flow ID.......: 8608
Flow Name.....: keras.wrappers.scikit_learn.KerasClassifier(Reshape,Conv2D,Conv2D,MaxPooling2D,BatchNormalization,Conv2D,Conv2D,MaxPooling2D,BatchNormalization,Conv2D,Conv2D,Conv2D,MaxPooling2D,BatchNormalization,Flatten,Dense,Dropout,Dense,Dropout,Dense)(2)_layer12
Flow URL......: https://www.openml.org/f/8608
Parameter Name: layer12
  |__Data Type: None
  |__Default..: {"class_name": "MaxPooling2D", "config": {"data_format": "channels_last", "name": "max_pooling2d_3", "padding": "valid", "pool_size": [2, 2], "strides": [2, 2], "trainable": true}}
  |__Value....: {"class_name": "MaxPooling2D", "config": {"data_format": "channels_last", "name": "max_pooling2d_216", "padding": "valid", "pool_size": [2, 2], "strides": [2, 2], "trainable": true}}, 83552: OpenML Parameter
================
ID............: 83552
Flow ID.......: 8608
Flow Name.....: keras.wrappers.scikit_learn.KerasClassifier(Reshape,Conv2D,Conv2D,MaxPooling2D,BatchNormalization,Conv2D,Conv2D,MaxPooling2D,BatchNormalization,Conv2D,Conv2D,Conv2D,MaxPooling2D,BatchNormalization,Flatten,Dense,Dropout,Dense,Dropout,Dense)(2)_layer13
Flow URL......: https://www.openml.org/f/8608
Parameter Name: layer13
  |__Data Type: None
  |__Default..: {"class_name": "BatchNormalization", "config": {"axis": -1, "beta_constraint": null, "beta_initializer": {"class_name": "Zeros", "config": {}}, "beta_regularizer": null, "center": true, "epsilon": 0.001, "gamma_constraint": null, "gamma_initializer": {"class_name": "Ones", "config": {}}, "gamma_regularizer": null, "momentum": 0.99, "moving_mean_initializer": {"class_name": "Zeros", "config": {}}, "moving_variance_initializer": {"class_name": "Ones", "config": {}}, "name": "batch_normalization_3", "scale": true, "trainable": true}}
  |__Value....: {"class_name": "BatchNormalization", "config": {"axis": -1, "beta_constraint": null, "beta_initializer": {"class_name": "Zeros", "config": {}}, "beta_regularizer": null, "center": true, "epsilon": 0.001, "gamma_constraint": null, "gamma_initializer": {"class_name": "Ones", "config": {}}, "gamma_regularizer": null, "momentum": 0.99, "moving_mean_initializer": {"class_name": "Zeros", "config": {}}, "moving_variance_initializer": {"class_name": "Ones", "config": {}}, "name": "batch_normalization_216", "scale": true, "trainable": true}}, 83553: OpenML Parameter
================
ID............: 83553
Flow ID.......: 8608
Flow Name.....: keras.wrappers.scikit_learn.KerasClassifier(Reshape,Conv2D,Conv2D,MaxPooling2D,BatchNormalization,Conv2D,Conv2D,MaxPooling2D,BatchNormalization,Conv2D,Conv2D,Conv2D,MaxPooling2D,BatchNormalization,Flatten,Dense,Dropout,Dense,Dropout,Dense)(2)_layer14
Flow URL......: https://www.openml.org/f/8608
Parameter Name: layer14
  |__Data Type: None
  |__Default..: {"class_name": "Flatten", "config": {"data_format": "channels_last", "name": "flatten_1", "trainable": true}}
  |__Value....: {"class_name": "Flatten", "config": {"data_format": "channels_last", "name": "flatten_72", "trainable": true}}, 83554: OpenML Parameter
================
ID............: 83554
Flow ID.......: 8608
Flow Name.....: keras.wrappers.scikit_learn.KerasClassifier(Reshape,Conv2D,Conv2D,MaxPooling2D,BatchNormalization,Conv2D,Conv2D,MaxPooling2D,BatchNormalization,Conv2D,Conv2D,Conv2D,MaxPooling2D,BatchNormalization,Flatten,Dense,Dropout,Dense,Dropout,Dense)(2)_layer15
Flow URL......: https://www.openml.org/f/8608
Parameter Name: layer15
  |__Data Type: None
  |__Default..: {"class_name": "Dense", "config": {"activation": "relu", "activity_regularizer": null, "bias_constraint": null, "bias_initializer": {"class_name": "Zeros", "config": {}}, "bias_regularizer": null, "kernel_constraint": null, "kernel_initializer": {"class_name": "VarianceScaling", "config": {"distribution": "uniform", "mode": "fan_avg", "scale": 1.0, "seed": null}}, "kernel_regularizer": null, "name": "dense_1", "trainable": true, "units": 4096, "use_bias": true}}
  |__Value....: {"class_name": "Dense", "config": {"activation": "relu", "activity_regularizer": null, "bias_constraint": null, "bias_initializer": {"class_name": "Zeros", "config": {}}, "bias_regularizer": null, "kernel_constraint": null, "kernel_initializer": {"class_name": "VarianceScaling", "config": {"distribution": "uniform", "mode": "fan_avg", "scale": 1.0, "seed": null}}, "kernel_regularizer": null, "name": "dense_214", "trainable": true, "units": 4096, "use_bias": true}}, 83555: OpenML Parameter
================
ID............: 83555
Flow ID.......: 8608
Flow Name.....: keras.wrappers.scikit_learn.KerasClassifier(Reshape,Conv2D,Conv2D,MaxPooling2D,BatchNormalization,Conv2D,Conv2D,MaxPooling2D,BatchNormalization,Conv2D,Conv2D,Conv2D,MaxPooling2D,BatchNormalization,Flatten,Dense,Dropout,Dense,Dropout,Dense)(2)_layer16
Flow URL......: https://www.openml.org/f/8608
Parameter Name: layer16
  |__Data Type: None
  |__Default..: {"class_name": "Dropout", "config": {"name": "dropout_1", "noise_shape": null, "rate": 0.5, "seed": null, "trainable": true}}
  |__Value....: {"class_name": "Dropout", "config": {"name": "dropout_143", "noise_shape": null, "rate": 0.5, "seed": null, "trainable": true}}, 83556: OpenML Parameter
================
ID............: 83556
Flow ID.......: 8608
Flow Name.....: keras.wrappers.scikit_learn.KerasClassifier(Reshape,Conv2D,Conv2D,MaxPooling2D,BatchNormalization,Conv2D,Conv2D,MaxPooling2D,BatchNormalization,Conv2D,Conv2D,Conv2D,MaxPooling2D,BatchNormalization,Flatten,Dense,Dropout,Dense,Dropout,Dense)(2)_layer17
Flow URL......: https://www.openml.org/f/8608
Parameter Name: layer17
  |__Data Type: None
  |__Default..: {"class_name": "Dense", "config": {"activation": "relu", "activity_regularizer": null, "bias_constraint": null, "bias_initializer": {"class_name": "Zeros", "config": {}}, "bias_regularizer": null, "kernel_constraint": null, "kernel_initializer": {"class_name": "VarianceScaling", "config": {"distribution": "uniform", "mode": "fan_avg", "scale": 1.0, "seed": null}}, "kernel_regularizer": null, "name": "dense_2", "trainable": true, "units": 4096, "use_bias": true}}
  |__Value....: {"class_name": "Dense", "config": {"activation": "relu", "activity_regularizer": null, "bias_constraint": null, "bias_initializer": {"class_name": "Zeros", "config": {}}, "bias_regularizer": null, "kernel_constraint": null, "kernel_initializer": {"class_name": "VarianceScaling", "config": {"distribution": "uniform", "mode": "fan_avg", "scale": 1.0, "seed": null}}, "kernel_regularizer": null, "name": "dense_215", "trainable": true, "units": 4096, "use_bias": true}}, 83557: OpenML Parameter
================
ID............: 83557
Flow ID.......: 8608
Flow Name.....: keras.wrappers.scikit_learn.KerasClassifier(Reshape,Conv2D,Conv2D,MaxPooling2D,BatchNormalization,Conv2D,Conv2D,MaxPooling2D,BatchNormalization,Conv2D,Conv2D,Conv2D,MaxPooling2D,BatchNormalization,Flatten,Dense,Dropout,Dense,Dropout,Dense)(2)_layer18
Flow URL......: https://www.openml.org/f/8608
Parameter Name: layer18
  |__Data Type: None
  |__Default..: {"class_name": "Dropout", "config": {"name": "dropout_2", "noise_shape": null, "rate": 0.5, "seed": null, "trainable": true}}
  |__Value....: {"class_name": "Dropout", "config": {"name": "dropout_144", "noise_shape": null, "rate": 0.5, "seed": null, "trainable": true}}, 83558: OpenML Parameter
================
ID............: 83558
Flow ID.......: 8608
Flow Name.....: keras.wrappers.scikit_learn.KerasClassifier(Reshape,Conv2D,Conv2D,MaxPooling2D,BatchNormalization,Conv2D,Conv2D,MaxPooling2D,BatchNormalization,Conv2D,Conv2D,Conv2D,MaxPooling2D,BatchNormalization,Flatten,Dense,Dropout,Dense,Dropout,Dense)(2)_layer19
Flow URL......: https://www.openml.org/f/8608
Parameter Name: layer19
  |__Data Type: None
  |__Default..: {"class_name": "Dense", "config": {"activation": "softmax", "activity_regularizer": null, "bias_constraint": null, "bias_initializer": {"class_name": "Zeros", "config": {}}, "bias_regularizer": null, "kernel_constraint": null, "kernel_initializer": {"class_name": "VarianceScaling", "config": {"distribution": "uniform", "mode": "fan_avg", "scale": 1.0, "seed": null}}, "kernel_regularizer": null, "name": "dense_3", "trainable": true, "units": 10, "use_bias": true}}
  |__Value....: {"class_name": "Dense", "config": {"activation": "softmax", "activity_regularizer": null, "bias_constraint": null, "bias_initializer": {"class_name": "Zeros", "config": {}}, "bias_regularizer": null, "kernel_constraint": null, "kernel_initializer": {"class_name": "VarianceScaling", "config": {"distribution": "uniform", "mode": "fan_avg", "scale": 1.0, "seed": null}}, "kernel_regularizer": null, "name": "dense_216", "trainable": true, "units": 47, "use_bias": true}}, 83559: OpenML Parameter
================
ID............: 83559
Flow ID.......: 8608
Flow Name.....: keras.wrappers.scikit_learn.KerasClassifier(Reshape,Conv2D,Conv2D,MaxPooling2D,BatchNormalization,Conv2D,Conv2D,MaxPooling2D,BatchNormalization,Conv2D,Conv2D,Conv2D,MaxPooling2D,BatchNormalization,Flatten,Dense,Dropout,Dense,Dropout,Dense)(2)_layer2
Flow URL......: https://www.openml.org/f/8608
Parameter Name: layer2
  |__Data Type: None
  |__Default..: {"class_name": "Conv2D", "config": {"activation": "relu", "activity_regularizer": null, "bias_constraint": null, "bias_initializer": {"class_name": "Zeros", "config": {}}, "bias_regularizer": null, "data_format": "channels_last", "dilation_rate": [1, 1], "filters": 64, "kernel_constraint": null, "kernel_initializer": {"class_name": "VarianceScaling", "config": {"distribution": "uniform", "mode": "fan_avg", "scale": 1.0, "seed": null}}, "kernel_regularizer": null, "kernel_size": [3, 3], "name": "conv2d_2", "padding": "same", "strides": [1, 1], "trainable": true, "use_bias": true}}
  |__Value....: {"class_name": "Conv2D", "config": {"activation": "relu", "activity_regularizer": null, "bias_constraint": null, "bias_initializer": {"class_name": "Zeros", "config": {}}, "bias_regularizer": null, "data_format": "channels_last", "dilation_rate": [1, 1], "filters": 64, "kernel_constraint": null, "kernel_initializer": {"class_name": "VarianceScaling", "config": {"distribution": "uniform", "mode": "fan_avg", "scale": 1.0, "seed": null}}, "kernel_regularizer": null, "kernel_size": [3, 3], "name": "conv2d_499", "padding": "same", "strides": [1, 1], "trainable": false, "use_bias": true}}, 83560: OpenML Parameter
================
ID............: 83560
Flow ID.......: 8608
Flow Name.....: keras.wrappers.scikit_learn.KerasClassifier(Reshape,Conv2D,Conv2D,MaxPooling2D,BatchNormalization,Conv2D,Conv2D,MaxPooling2D,BatchNormalization,Conv2D,Conv2D,Conv2D,MaxPooling2D,BatchNormalization,Flatten,Dense,Dropout,Dense,Dropout,Dense)(2)_layer3
Flow URL......: https://www.openml.org/f/8608
Parameter Name: layer3
  |__Data Type: None
  |__Default..: {"class_name": "MaxPooling2D", "config": {"data_format": "channels_last", "name": "max_pooling2d_1", "padding": "valid", "pool_size": [2, 2], "strides": [2, 2], "trainable": true}}
  |__Value....: {"class_name": "MaxPooling2D", "config": {"data_format": "channels_last", "name": "max_pooling2d_214", "padding": "valid", "pool_size": [2, 2], "strides": [2, 2], "trainable": true}}, 83561: OpenML Parameter
================
ID............: 83561
Flow ID.......: 8608
Flow Name.....: keras.wrappers.scikit_learn.KerasClassifier(Reshape,Conv2D,Conv2D,MaxPooling2D,BatchNormalization,Conv2D,Conv2D,MaxPooling2D,BatchNormalization,Conv2D,Conv2D,Conv2D,MaxPooling2D,BatchNormalization,Flatten,Dense,Dropout,Dense,Dropout,Dense)(2)_layer4
Flow URL......: https://www.openml.org/f/8608
Parameter Name: layer4
  |__Data Type: None
  |__Default..: {"class_name": "BatchNormalization", "config": {"axis": -1, "beta_constraint": null, "beta_initializer": {"class_name": "Zeros", "config": {}}, "beta_regularizer": null, "center": true, "epsilon": 0.001, "gamma_constraint": null, "gamma_initializer": {"class_name": "Ones", "config": {}}, "gamma_regularizer": null, "momentum": 0.99, "moving_mean_initializer": {"class_name": "Zeros", "config": {}}, "moving_variance_initializer": {"class_name": "Ones", "config": {}}, "name": "batch_normalization_1", "scale": true, "trainable": true}}
  |__Value....: {"class_name": "BatchNormalization", "config": {"axis": -1, "beta_constraint": null, "beta_initializer": {"class_name": "Zeros", "config": {}}, "beta_regularizer": null, "center": true, "epsilon": 0.001, "gamma_constraint": null, "gamma_initializer": {"class_name": "Ones", "config": {}}, "gamma_regularizer": null, "momentum": 0.99, "moving_mean_initializer": {"class_name": "Zeros", "config": {}}, "moving_variance_initializer": {"class_name": "Ones", "config": {}}, "name": "batch_normalization_214", "scale": true, "trainable": true}}, 83562: OpenML Parameter
================
ID............: 83562
Flow ID.......: 8608
Flow Name.....: keras.wrappers.scikit_learn.KerasClassifier(Reshape,Conv2D,Conv2D,MaxPooling2D,BatchNormalization,Conv2D,Conv2D,MaxPooling2D,BatchNormalization,Conv2D,Conv2D,Conv2D,MaxPooling2D,BatchNormalization,Flatten,Dense,Dropout,Dense,Dropout,Dense)(2)_layer5
Flow URL......: https://www.openml.org/f/8608
Parameter Name: layer5
  |__Data Type: None
  |__Default..: {"class_name": "Conv2D", "config": {"activation": "relu", "activity_regularizer": null, "bias_constraint": null, "bias_initializer": {"class_name": "Zeros", "config": {}}, "bias_regularizer": null, "data_format": "channels_last", "dilation_rate": [1, 1], "filters": 128, "kernel_constraint": null, "kernel_initializer": {"class_name": "VarianceScaling", "config": {"distribution": "uniform", "mode": "fan_avg", "scale": 1.0, "seed": null}}, "kernel_regularizer": null, "kernel_size": [3, 3], "name": "conv2d_3", "padding": "same", "strides": [1, 1], "trainable": true, "use_bias": true}}
  |__Value....: {"class_name": "Conv2D", "config": {"activation": "relu", "activity_regularizer": null, "bias_constraint": null, "bias_initializer": {"class_name": "Zeros", "config": {}}, "bias_regularizer": null, "data_format": "channels_last", "dilation_rate": [1, 1], "filters": 128, "kernel_constraint": null, "kernel_initializer": {"class_name": "VarianceScaling", "config": {"distribution": "uniform", "mode": "fan_avg", "scale": 1.0, "seed": null}}, "kernel_regularizer": null, "kernel_size": [3, 3], "name": "conv2d_500", "padding": "same", "strides": [1, 1], "trainable": true, "use_bias": true}}, 83563: OpenML Parameter
================
ID............: 83563
Flow ID.......: 8608
Flow Name.....: keras.wrappers.scikit_learn.KerasClassifier(Reshape,Conv2D,Conv2D,MaxPooling2D,BatchNormalization,Conv2D,Conv2D,MaxPooling2D,BatchNormalization,Conv2D,Conv2D,Conv2D,MaxPooling2D,BatchNormalization,Flatten,Dense,Dropout,Dense,Dropout,Dense)(2)_layer6
Flow URL......: https://www.openml.org/f/8608
Parameter Name: layer6
  |__Data Type: None
  |__Default..: {"class_name": "Conv2D", "config": {"activation": "relu", "activity_regularizer": null, "bias_constraint": null, "bias_initializer": {"class_name": "Zeros", "config": {}}, "bias_regularizer": null, "data_format": "channels_last", "dilation_rate": [1, 1], "filters": 128, "kernel_constraint": null, "kernel_initializer": {"class_name": "VarianceScaling", "config": {"distribution": "uniform", "mode": "fan_avg", "scale": 1.0, "seed": null}}, "kernel_regularizer": null, "kernel_size": [3, 3], "name": "conv2d_4", "padding": "same", "strides": [1, 1], "trainable": true, "use_bias": true}}
  |__Value....: {"class_name": "Conv2D", "config": {"activation": "relu", "activity_regularizer": null, "bias_constraint": null, "bias_initializer": {"class_name": "Zeros", "config": {}}, "bias_regularizer": null, "data_format": "channels_last", "dilation_rate": [1, 1], "filters": 128, "kernel_constraint": null, "kernel_initializer": {"class_name": "VarianceScaling", "config": {"distribution": "uniform", "mode": "fan_avg", "scale": 1.0, "seed": null}}, "kernel_regularizer": null, "kernel_size": [3, 3], "name": "conv2d_501", "padding": "same", "strides": [1, 1], "trainable": true, "use_bias": true}}, 83564: OpenML Parameter
================
ID............: 83564
Flow ID.......: 8608
Flow Name.....: keras.wrappers.scikit_learn.KerasClassifier(Reshape,Conv2D,Conv2D,MaxPooling2D,BatchNormalization,Conv2D,Conv2D,MaxPooling2D,BatchNormalization,Conv2D,Conv2D,Conv2D,MaxPooling2D,BatchNormalization,Flatten,Dense,Dropout,Dense,Dropout,Dense)(2)_layer7
Flow URL......: https://www.openml.org/f/8608
Parameter Name: layer7
  |__Data Type: None
  |__Default..: {"class_name": "MaxPooling2D", "config": {"data_format": "channels_last", "name": "max_pooling2d_2", "padding": "valid", "pool_size": [2, 2], "strides": [2, 2], "trainable": true}}
  |__Value....: {"class_name": "MaxPooling2D", "config": {"data_format": "channels_last", "name": "max_pooling2d_215", "padding": "valid", "pool_size": [2, 2], "strides": [2, 2], "trainable": true}}, 83565: OpenML Parameter
================
ID............: 83565
Flow ID.......: 8608
Flow Name.....: keras.wrappers.scikit_learn.KerasClassifier(Reshape,Conv2D,Conv2D,MaxPooling2D,BatchNormalization,Conv2D,Conv2D,MaxPooling2D,BatchNormalization,Conv2D,Conv2D,Conv2D,MaxPooling2D,BatchNormalization,Flatten,Dense,Dropout,Dense,Dropout,Dense)(2)_layer8
Flow URL......: https://www.openml.org/f/8608
Parameter Name: layer8
  |__Data Type: None
  |__Default..: {"class_name": "BatchNormalization", "config": {"axis": -1, "beta_constraint": null, "beta_initializer": {"class_name": "Zeros", "config": {}}, "beta_regularizer": null, "center": true, "epsilon": 0.001, "gamma_constraint": null, "gamma_initializer": {"class_name": "Ones", "config": {}}, "gamma_regularizer": null, "momentum": 0.99, "moving_mean_initializer": {"class_name": "Zeros", "config": {}}, "moving_variance_initializer": {"class_name": "Ones", "config": {}}, "name": "batch_normalization_2", "scale": true, "trainable": true}}
  |__Value....: {"class_name": "BatchNormalization", "config": {"axis": -1, "beta_constraint": null, "beta_initializer": {"class_name": "Zeros", "config": {}}, "beta_regularizer": null, "center": true, "epsilon": 0.001, "gamma_constraint": null, "gamma_initializer": {"class_name": "Ones", "config": {}}, "gamma_regularizer": null, "momentum": 0.99, "moving_mean_initializer": {"class_name": "Zeros", "config": {}}, "moving_variance_initializer": {"class_name": "Ones", "config": {}}, "name": "batch_normalization_215", "scale": true, "trainable": true}}, 83566: OpenML Parameter
================
ID............: 83566
Flow ID.......: 8608
Flow Name.....: keras.wrappers.scikit_learn.KerasClassifier(Reshape,Conv2D,Conv2D,MaxPooling2D,BatchNormalization,Conv2D,Conv2D,MaxPooling2D,BatchNormalization,Conv2D,Conv2D,Conv2D,MaxPooling2D,BatchNormalization,Flatten,Dense,Dropout,Dense,Dropout,Dense)(2)_layer9
Flow URL......: https://www.openml.org/f/8608
Parameter Name: layer9
  |__Data Type: None
  |__Default..: {"class_name": "Conv2D", "config": {"activation": "relu", "activity_regularizer": null, "bias_constraint": null, "bias_initializer": {"class_name": "Zeros", "config": {}}, "bias_regularizer": null, "data_format": "channels_last", "dilation_rate": [1, 1], "filters": 256, "kernel_constraint": null, "kernel_initializer": {"class_name": "VarianceScaling", "config": {"distribution": "uniform", "mode": "fan_avg", "scale": 1.0, "seed": null}}, "kernel_regularizer": null, "kernel_size": [3, 3], "name": "conv2d_5", "padding": "same", "strides": [1, 1], "trainable": true, "use_bias": true}}
  |__Value....: {"class_name": "Conv2D", "config": {"activation": "relu", "activity_regularizer": null, "bias_constraint": null, "bias_initializer": {"class_name": "Zeros", "config": {}}, "bias_regularizer": null, "data_format": "channels_last", "dilation_rate": [1, 1], "filters": 256, "kernel_constraint": null, "kernel_initializer": {"class_name": "VarianceScaling", "config": {"distribution": "uniform", "mode": "fan_avg", "scale": 1.0, "seed": null}}, "kernel_regularizer": null, "kernel_size": [3, 3], "name": "conv2d_502", "padding": "same", "strides": [1, 1], "trainable": true, "use_bias": true}}, 83567: OpenML Parameter
================
ID............: 83567
Flow ID.......: 8608
Flow Name.....: keras.wrappers.scikit_learn.KerasClassifier(Reshape,Conv2D,Conv2D,MaxPooling2D,BatchNormalization,Conv2D,Conv2D,MaxPooling2D,BatchNormalization,Conv2D,Conv2D,Conv2D,MaxPooling2D,BatchNormalization,Flatten,Dense,Dropout,Dense,Dropout,Dense)(2)_verbose
Flow URL......: https://www.openml.org/f/8608
Parameter Name: verbose
  |__Data Type: None
  |__Default..: 2
  |__Value....: 2}, {83544: OpenML Parameter
================
ID............: 83544
Flow ID.......: 8608
Flow Name.....: keras.wrappers.scikit_learn.KerasClassifier(Reshape,Conv2D,Conv2D,MaxPooling2D,BatchNormalization,Conv2D,Conv2D,MaxPooling2D,BatchNormalization,Conv2D,Conv2D,Conv2D,MaxPooling2D,BatchNormalization,Flatten,Dense,Dropout,Dense,Dropout,Dense)(2)_batch_size
Flow URL......: https://www.openml.org/f/8608
Parameter Name: batch_size
  |__Data Type: None
  |__Default..: 32
  |__Value....: 128, 83545: OpenML Parameter
================
ID............: 83545
Flow ID.......: 8608
Flow Name.....: keras.wrappers.scikit_learn.KerasClassifier(Reshape,Conv2D,Conv2D,MaxPooling2D,BatchNormalization,Conv2D,Conv2D,MaxPooling2D,BatchNormalization,Conv2D,Conv2D,Conv2D,MaxPooling2D,BatchNormalization,Flatten,Dense,Dropout,Dense,Dropout,Dense)(2)_build_fn
Flow URL......: https://www.openml.org/f/8608
Parameter Name: build_fn
  |__Data Type: None
  |__Default..: {"oml-python:serialized_object": "function", "value": "__main__.vggnet"}
  |__Value....: {"oml-python:serialized_object": "function", "value": "__main__.vggnet_emnist_emnist_5_128_True"}, 83546: OpenML Parameter
================
ID............: 83546
Flow ID.......: 8608
Flow Name.....: keras.wrappers.scikit_learn.KerasClassifier(Reshape,Conv2D,Conv2D,MaxPooling2D,BatchNormalization,Conv2D,Conv2D,MaxPooling2D,BatchNormalization,Conv2D,Conv2D,Conv2D,MaxPooling2D,BatchNormalization,Flatten,Dense,Dropout,Dense,Dropout,Dense)(2)_epochs
Flow URL......: https://www.openml.org/f/8608
Parameter Name: epochs
  |__Data Type: None
  |__Default..: 3
  |__Value....: 5, 83547: OpenML Parameter
================
ID............: 83547
Flow ID.......: 8608
Flow Name.....: keras.wrappers.scikit_learn.KerasClassifier(Reshape,Conv2D,Conv2D,MaxPooling2D,BatchNormalization,Conv2D,Conv2D,MaxPooling2D,BatchNormalization,Conv2D,Conv2D,Conv2D,MaxPooling2D,BatchNormalization,Flatten,Dense,Dropout,Dense,Dropout,Dense)(2)_layer0
Flow URL......: https://www.openml.org/f/8608
Parameter Name: layer0
  |__Data Type: None
  |__Default..: {"class_name": "Reshape", "config": {"batch_input_shape": [null, 3072], "dtype": "float32", "name": "reshape_1", "target_shape": [32, 32, 3], "trainable": true}}
  |__Value....: {"class_name": "Reshape", "config": {"batch_input_shape": [null, 784], "dtype": "float32", "name": "reshape_72", "target_shape": [28, 28, 1], "trainable": true}}, 83548: OpenML Parameter
================
ID............: 83548
Flow ID.......: 8608
Flow Name.....: keras.wrappers.scikit_learn.KerasClassifier(Reshape,Conv2D,Conv2D,MaxPooling2D,BatchNormalization,Conv2D,Conv2D,MaxPooling2D,BatchNormalization,Conv2D,Conv2D,Conv2D,MaxPooling2D,BatchNormalization,Flatten,Dense,Dropout,Dense,Dropout,Dense)(2)_layer1
Flow URL......: https://www.openml.org/f/8608
Parameter Name: layer1
  |__Data Type: None
  |__Default..: {"class_name": "Conv2D", "config": {"activation": "relu", "activity_regularizer": null, "bias_constraint": null, "bias_initializer": {"class_name": "Zeros", "config": {}}, "bias_regularizer": null, "data_format": "channels_last", "dilation_rate": [1, 1], "filters": 64, "kernel_constraint": null, "kernel_initializer": {"class_name": "VarianceScaling", "config": {"distribution": "uniform", "mode": "fan_avg", "scale": 1.0, "seed": null}}, "kernel_regularizer": null, "kernel_size": [3, 3], "name": "conv2d_1", "padding": "same", "strides": [1, 1], "trainable": true, "use_bias": true}}
  |__Value....: {"class_name": "Conv2D", "config": {"activation": "relu", "activity_regularizer": null, "bias_constraint": null, "bias_initializer": {"class_name": "Zeros", "config": {}}, "bias_regularizer": null, "data_format": "channels_last", "dilation_rate": [1, 1], "filters": 64, "kernel_constraint": null, "kernel_initializer": {"class_name": "VarianceScaling", "config": {"distribution": "uniform", "mode": "fan_avg", "scale": 1.0, "seed": null}}, "kernel_regularizer": null, "kernel_size": [3, 3], "name": "conv2d_498", "padding": "same", "strides": [1, 1], "trainable": true, "use_bias": true}}, 83549: OpenML Parameter
================
ID............: 83549
Flow ID.......: 8608
Flow Name.....: keras.wrappers.scikit_learn.KerasClassifier(Reshape,Conv2D,Conv2D,MaxPooling2D,BatchNormalization,Conv2D,Conv2D,MaxPooling2D,BatchNormalization,Conv2D,Conv2D,Conv2D,MaxPooling2D,BatchNormalization,Flatten,Dense,Dropout,Dense,Dropout,Dense)(2)_layer10
Flow URL......: https://www.openml.org/f/8608
Parameter Name: layer10
  |__Data Type: None
  |__Default..: {"class_name": "Conv2D", "config": {"activation": "relu", "activity_regularizer": null, "bias_constraint": null, "bias_initializer": {"class_name": "Zeros", "config": {}}, "bias_regularizer": null, "data_format": "channels_last", "dilation_rate": [1, 1], "filters": 256, "kernel_constraint": null, "kernel_initializer": {"class_name": "VarianceScaling", "config": {"distribution": "uniform", "mode": "fan_avg", "scale": 1.0, "seed": null}}, "kernel_regularizer": null, "kernel_size": [3, 3], "name": "conv2d_6", "padding": "same", "strides": [1, 1], "trainable": true, "use_bias": true}}
  |__Value....: {"class_name": "Conv2D", "config": {"activation": "relu", "activity_regularizer": null, "bias_constraint": null, "bias_initializer": {"class_name": "Zeros", "config": {}}, "bias_regularizer": null, "data_format": "channels_last", "dilation_rate": [1, 1], "filters": 256, "kernel_constraint": null, "kernel_initializer": {"class_name": "VarianceScaling", "config": {"distribution": "uniform", "mode": "fan_avg", "scale": 1.0, "seed": null}}, "kernel_regularizer": null, "kernel_size": [3, 3], "name": "conv2d_503", "padding": "same", "strides": [1, 1], "trainable": true, "use_bias": true}}, 83550: OpenML Parameter
================
ID............: 83550
Flow ID.......: 8608
Flow Name.....: keras.wrappers.scikit_learn.KerasClassifier(Reshape,Conv2D,Conv2D,MaxPooling2D,BatchNormalization,Conv2D,Conv2D,MaxPooling2D,BatchNormalization,Conv2D,Conv2D,Conv2D,MaxPooling2D,BatchNormalization,Flatten,Dense,Dropout,Dense,Dropout,Dense)(2)_layer11
Flow URL......: https://www.openml.org/f/8608
Parameter Name: layer11
  |__Data Type: None
  |__Default..: {"class_name": "Conv2D", "config": {"activation": "relu", "activity_regularizer": null, "bias_constraint": null, "bias_initializer": {"class_name": "Zeros", "config": {}}, "bias_regularizer": null, "data_format": "channels_last", "dilation_rate": [1, 1], "filters": 256, "kernel_constraint": null, "kernel_initializer": {"class_name": "VarianceScaling", "config": {"distribution": "uniform", "mode": "fan_avg", "scale": 1.0, "seed": null}}, "kernel_regularizer": null, "kernel_size": [3, 3], "name": "conv2d_7", "padding": "same", "strides": [1, 1], "trainable": true, "use_bias": true}}
  |__Value....: {"class_name": "Conv2D", "config": {"activation": "relu", "activity_regularizer": null, "bias_constraint": null, "bias_initializer": {"class_name": "Zeros", "config": {}}, "bias_regularizer": null, "data_format": "channels_last", "dilation_rate": [1, 1], "filters": 256, "kernel_constraint": null, "kernel_initializer": {"class_name": "VarianceScaling", "config": {"distribution": "uniform", "mode": "fan_avg", "scale": 1.0, "seed": null}}, "kernel_regularizer": null, "kernel_size": [3, 3], "name": "conv2d_504", "padding": "same", "strides": [1, 1], "trainable": true, "use_bias": true}}, 83551: OpenML Parameter
================
ID............: 83551
Flow ID.......: 8608
Flow Name.....: keras.wrappers.scikit_learn.KerasClassifier(Reshape,Conv2D,Conv2D,MaxPooling2D,BatchNormalization,Conv2D,Conv2D,MaxPooling2D,BatchNormalization,Conv2D,Conv2D,Conv2D,MaxPooling2D,BatchNormalization,Flatten,Dense,Dropout,Dense,Dropout,Dense)(2)_layer12
Flow URL......: https://www.openml.org/f/8608
Parameter Name: layer12
  |__Data Type: None
  |__Default..: {"class_name": "MaxPooling2D", "config": {"data_format": "channels_last", "name": "max_pooling2d_3", "padding": "valid", "pool_size": [2, 2], "strides": [2, 2], "trainable": true}}
  |__Value....: {"class_name": "MaxPooling2D", "config": {"data_format": "channels_last", "name": "max_pooling2d_216", "padding": "valid", "pool_size": [2, 2], "strides": [2, 2], "trainable": true}}, 83552: OpenML Parameter
================
ID............: 83552
Flow ID.......: 8608
Flow Name.....: keras.wrappers.scikit_learn.KerasClassifier(Reshape,Conv2D,Conv2D,MaxPooling2D,BatchNormalization,Conv2D,Conv2D,MaxPooling2D,BatchNormalization,Conv2D,Conv2D,Conv2D,MaxPooling2D,BatchNormalization,Flatten,Dense,Dropout,Dense,Dropout,Dense)(2)_layer13
Flow URL......: https://www.openml.org/f/8608
Parameter Name: layer13
  |__Data Type: None
  |__Default..: {"class_name": "BatchNormalization", "config": {"axis": -1, "beta_constraint": null, "beta_initializer": {"class_name": "Zeros", "config": {}}, "beta_regularizer": null, "center": true, "epsilon": 0.001, "gamma_constraint": null, "gamma_initializer": {"class_name": "Ones", "config": {}}, "gamma_regularizer": null, "momentum": 0.99, "moving_mean_initializer": {"class_name": "Zeros", "config": {}}, "moving_variance_initializer": {"class_name": "Ones", "config": {}}, "name": "batch_normalization_3", "scale": true, "trainable": true}}
  |__Value....: {"class_name": "BatchNormalization", "config": {"axis": -1, "beta_constraint": null, "beta_initializer": {"class_name": "Zeros", "config": {}}, "beta_regularizer": null, "center": true, "epsilon": 0.001, "gamma_constraint": null, "gamma_initializer": {"class_name": "Ones", "config": {}}, "gamma_regularizer": null, "momentum": 0.99, "moving_mean_initializer": {"class_name": "Zeros", "config": {}}, "moving_variance_initializer": {"class_name": "Ones", "config": {}}, "name": "batch_normalization_216", "scale": true, "trainable": true}}, 83553: OpenML Parameter
================
ID............: 83553
Flow ID.......: 8608
Flow Name.....: keras.wrappers.scikit_learn.KerasClassifier(Reshape,Conv2D,Conv2D,MaxPooling2D,BatchNormalization,Conv2D,Conv2D,MaxPooling2D,BatchNormalization,Conv2D,Conv2D,Conv2D,MaxPooling2D,BatchNormalization,Flatten,Dense,Dropout,Dense,Dropout,Dense)(2)_layer14
Flow URL......: https://www.openml.org/f/8608
Parameter Name: layer14
  |__Data Type: None
  |__Default..: {"class_name": "Flatten", "config": {"data_format": "channels_last", "name": "flatten_1", "trainable": true}}
  |__Value....: {"class_name": "Flatten", "config": {"data_format": "channels_last", "name": "flatten_72", "trainable": true}}, 83554: OpenML Parameter
================
ID............: 83554
Flow ID.......: 8608
Flow Name.....: keras.wrappers.scikit_learn.KerasClassifier(Reshape,Conv2D,Conv2D,MaxPooling2D,BatchNormalization,Conv2D,Conv2D,MaxPooling2D,BatchNormalization,Conv2D,Conv2D,Conv2D,MaxPooling2D,BatchNormalization,Flatten,Dense,Dropout,Dense,Dropout,Dense)(2)_layer15
Flow URL......: https://www.openml.org/f/8608
Parameter Name: layer15
  |__Data Type: None
  |__Default..: {"class_name": "Dense", "config": {"activation": "relu", "activity_regularizer": null, "bias_constraint": null, "bias_initializer": {"class_name": "Zeros", "config": {}}, "bias_regularizer": null, "kernel_constraint": null, "kernel_initializer": {"class_name": "VarianceScaling", "config": {"distribution": "uniform", "mode": "fan_avg", "scale": 1.0, "seed": null}}, "kernel_regularizer": null, "name": "dense_1", "trainable": true, "units": 4096, "use_bias": true}}
  |__Value....: {"class_name": "Dense", "config": {"activation": "relu", "activity_regularizer": null, "bias_constraint": null, "bias_initializer": {"class_name": "Zeros", "config": {}}, "bias_regularizer": null, "kernel_constraint": null, "kernel_initializer": {"class_name": "VarianceScaling", "config": {"distribution": "uniform", "mode": "fan_avg", "scale": 1.0, "seed": null}}, "kernel_regularizer": null, "name": "dense_214", "trainable": true, "units": 4096, "use_bias": true}}, 83555: OpenML Parameter
================
ID............: 83555
Flow ID.......: 8608
Flow Name.....: keras.wrappers.scikit_learn.KerasClassifier(Reshape,Conv2D,Conv2D,MaxPooling2D,BatchNormalization,Conv2D,Conv2D,MaxPooling2D,BatchNormalization,Conv2D,Conv2D,Conv2D,MaxPooling2D,BatchNormalization,Flatten,Dense,Dropout,Dense,Dropout,Dense)(2)_layer16
Flow URL......: https://www.openml.org/f/8608
Parameter Name: layer16
  |__Data Type: None
  |__Default..: {"class_name": "Dropout", "config": {"name": "dropout_1", "noise_shape": null, "rate": 0.5, "seed": null, "trainable": true}}
  |__Value....: {"class_name": "Dropout", "config": {"name": "dropout_143", "noise_shape": null, "rate": 0.5, "seed": null, "trainable": true}}, 83556: OpenML Parameter
================
ID............: 83556
Flow ID.......: 8608
Flow Name.....: keras.wrappers.scikit_learn.KerasClassifier(Reshape,Conv2D,Conv2D,MaxPooling2D,BatchNormalization,Conv2D,Conv2D,MaxPooling2D,BatchNormalization,Conv2D,Conv2D,Conv2D,MaxPooling2D,BatchNormalization,Flatten,Dense,Dropout,Dense,Dropout,Dense)(2)_layer17
Flow URL......: https://www.openml.org/f/8608
Parameter Name: layer17
  |__Data Type: None
  |__Default..: {"class_name": "Dense", "config": {"activation": "relu", "activity_regularizer": null, "bias_constraint": null, "bias_initializer": {"class_name": "Zeros", "config": {}}, "bias_regularizer": null, "kernel_constraint": null, "kernel_initializer": {"class_name": "VarianceScaling", "config": {"distribution": "uniform", "mode": "fan_avg", "scale": 1.0, "seed": null}}, "kernel_regularizer": null, "name": "dense_2", "trainable": true, "units": 4096, "use_bias": true}}
  |__Value....: {"class_name": "Dense", "config": {"activation": "relu", "activity_regularizer": null, "bias_constraint": null, "bias_initializer": {"class_name": "Zeros", "config": {}}, "bias_regularizer": null, "kernel_constraint": null, "kernel_initializer": {"class_name": "VarianceScaling", "config": {"distribution": "uniform", "mode": "fan_avg", "scale": 1.0, "seed": null}}, "kernel_regularizer": null, "name": "dense_215", "trainable": true, "units": 4096, "use_bias": true}}, 83557: OpenML Parameter
================
ID............: 83557
Flow ID.......: 8608
Flow Name.....: keras.wrappers.scikit_learn.KerasClassifier(Reshape,Conv2D,Conv2D,MaxPooling2D,BatchNormalization,Conv2D,Conv2D,MaxPooling2D,BatchNormalization,Conv2D,Conv2D,Conv2D,MaxPooling2D,BatchNormalization,Flatten,Dense,Dropout,Dense,Dropout,Dense)(2)_layer18
Flow URL......: https://www.openml.org/f/8608
Parameter Name: layer18
  |__Data Type: None
  |__Default..: {"class_name": "Dropout", "config": {"name": "dropout_2", "noise_shape": null, "rate": 0.5, "seed": null, "trainable": true}}
  |__Value....: {"class_name": "Dropout", "config": {"name": "dropout_144", "noise_shape": null, "rate": 0.5, "seed": null, "trainable": true}}, 83558: OpenML Parameter
================
ID............: 83558
Flow ID.......: 8608
Flow Name.....: keras.wrappers.scikit_learn.KerasClassifier(Reshape,Conv2D,Conv2D,MaxPooling2D,BatchNormalization,Conv2D,Conv2D,MaxPooling2D,BatchNormalization,Conv2D,Conv2D,Conv2D,MaxPooling2D,BatchNormalization,Flatten,Dense,Dropout,Dense,Dropout,Dense)(2)_layer19
Flow URL......: https://www.openml.org/f/8608
Parameter Name: layer19
  |__Data Type: None
  |__Default..: {"class_name": "Dense", "config": {"activation": "softmax", "activity_regularizer": null, "bias_constraint": null, "bias_initializer": {"class_name": "Zeros", "config": {}}, "bias_regularizer": null, "kernel_constraint": null, "kernel_initializer": {"class_name": "VarianceScaling", "config": {"distribution": "uniform", "mode": "fan_avg", "scale": 1.0, "seed": null}}, "kernel_regularizer": null, "name": "dense_3", "trainable": true, "units": 10, "use_bias": true}}
  |__Value....: {"class_name": "Dense", "config": {"activation": "softmax", "activity_regularizer": null, "bias_constraint": null, "bias_initializer": {"class_name": "Zeros", "config": {}}, "bias_regularizer": null, "kernel_constraint": null, "kernel_initializer": {"class_name": "VarianceScaling", "config": {"distribution": "uniform", "mode": "fan_avg", "scale": 1.0, "seed": null}}, "kernel_regularizer": null, "name": "dense_216", "trainable": true, "units": 47, "use_bias": true}}, 83559: OpenML Parameter
================
ID............: 83559
Flow ID.......: 8608
Flow Name.....: keras.wrappers.scikit_learn.KerasClassifier(Reshape,Conv2D,Conv2D,MaxPooling2D,BatchNormalization,Conv2D,Conv2D,MaxPooling2D,BatchNormalization,Conv2D,Conv2D,Conv2D,MaxPooling2D,BatchNormalization,Flatten,Dense,Dropout,Dense,Dropout,Dense)(2)_layer2
Flow URL......: https://www.openml.org/f/8608
Parameter Name: layer2
  |__Data Type: None
  |__Default..: {"class_name": "Conv2D", "config": {"activation": "relu", "activity_regularizer": null, "bias_constraint": null, "bias_initializer": {"class_name": "Zeros", "config": {}}, "bias_regularizer": null, "data_format": "channels_last", "dilation_rate": [1, 1], "filters": 64, "kernel_constraint": null, "kernel_initializer": {"class_name": "VarianceScaling", "config": {"distribution": "uniform", "mode": "fan_avg", "scale": 1.0, "seed": null}}, "kernel_regularizer": null, "kernel_size": [3, 3], "name": "conv2d_2", "padding": "same", "strides": [1, 1], "trainable": true, "use_bias": true}}
  |__Value....: {"class_name": "Conv2D", "config": {"activation": "relu", "activity_regularizer": null, "bias_constraint": null, "bias_initializer": {"class_name": "Zeros", "config": {}}, "bias_regularizer": null, "data_format": "channels_last", "dilation_rate": [1, 1], "filters": 64, "kernel_constraint": null, "kernel_initializer": {"class_name": "VarianceScaling", "config": {"distribution": "uniform", "mode": "fan_avg", "scale": 1.0, "seed": null}}, "kernel_regularizer": null, "kernel_size": [3, 3], "name": "conv2d_499", "padding": "same", "strides": [1, 1], "trainable": true, "use_bias": true}}, 83560: OpenML Parameter
================
ID............: 83560
Flow ID.......: 8608
Flow Name.....: keras.wrappers.scikit_learn.KerasClassifier(Reshape,Conv2D,Conv2D,MaxPooling2D,BatchNormalization,Conv2D,Conv2D,MaxPooling2D,BatchNormalization,Conv2D,Conv2D,Conv2D,MaxPooling2D,BatchNormalization,Flatten,Dense,Dropout,Dense,Dropout,Dense)(2)_layer3
Flow URL......: https://www.openml.org/f/8608
Parameter Name: layer3
  |__Data Type: None
  |__Default..: {"class_name": "MaxPooling2D", "config": {"data_format": "channels_last", "name": "max_pooling2d_1", "padding": "valid", "pool_size": [2, 2], "strides": [2, 2], "trainable": true}}
  |__Value....: {"class_name": "MaxPooling2D", "config": {"data_format": "channels_last", "name": "max_pooling2d_214", "padding": "valid", "pool_size": [2, 2], "strides": [2, 2], "trainable": true}}, 83561: OpenML Parameter
================
ID............: 83561
Flow ID.......: 8608
Flow Name.....: keras.wrappers.scikit_learn.KerasClassifier(Reshape,Conv2D,Conv2D,MaxPooling2D,BatchNormalization,Conv2D,Conv2D,MaxPooling2D,BatchNormalization,Conv2D,Conv2D,Conv2D,MaxPooling2D,BatchNormalization,Flatten,Dense,Dropout,Dense,Dropout,Dense)(2)_layer4
Flow URL......: https://www.openml.org/f/8608
Parameter Name: layer4
  |__Data Type: None
  |__Default..: {"class_name": "BatchNormalization", "config": {"axis": -1, "beta_constraint": null, "beta_initializer": {"class_name": "Zeros", "config": {}}, "beta_regularizer": null, "center": true, "epsilon": 0.001, "gamma_constraint": null, "gamma_initializer": {"class_name": "Ones", "config": {}}, "gamma_regularizer": null, "momentum": 0.99, "moving_mean_initializer": {"class_name": "Zeros", "config": {}}, "moving_variance_initializer": {"class_name": "Ones", "config": {}}, "name": "batch_normalization_1", "scale": true, "trainable": true}}
  |__Value....: {"class_name": "BatchNormalization", "config": {"axis": -1, "beta_constraint": null, "beta_initializer": {"class_name": "Zeros", "config": {}}, "beta_regularizer": null, "center": true, "epsilon": 0.001, "gamma_constraint": null, "gamma_initializer": {"class_name": "Ones", "config": {}}, "gamma_regularizer": null, "momentum": 0.99, "moving_mean_initializer": {"class_name": "Zeros", "config": {}}, "moving_variance_initializer": {"class_name": "Ones", "config": {}}, "name": "batch_normalization_214", "scale": true, "trainable": true}}, 83562: OpenML Parameter
================
ID............: 83562
Flow ID.......: 8608
Flow Name.....: keras.wrappers.scikit_learn.KerasClassifier(Reshape,Conv2D,Conv2D,MaxPooling2D,BatchNormalization,Conv2D,Conv2D,MaxPooling2D,BatchNormalization,Conv2D,Conv2D,Conv2D,MaxPooling2D,BatchNormalization,Flatten,Dense,Dropout,Dense,Dropout,Dense)(2)_layer5
Flow URL......: https://www.openml.org/f/8608
Parameter Name: layer5
  |__Data Type: None
  |__Default..: {"class_name": "Conv2D", "config": {"activation": "relu", "activity_regularizer": null, "bias_constraint": null, "bias_initializer": {"class_name": "Zeros", "config": {}}, "bias_regularizer": null, "data_format": "channels_last", "dilation_rate": [1, 1], "filters": 128, "kernel_constraint": null, "kernel_initializer": {"class_name": "VarianceScaling", "config": {"distribution": "uniform", "mode": "fan_avg", "scale": 1.0, "seed": null}}, "kernel_regularizer": null, "kernel_size": [3, 3], "name": "conv2d_3", "padding": "same", "strides": [1, 1], "trainable": true, "use_bias": true}}
  |__Value....: {"class_name": "Conv2D", "config": {"activation": "relu", "activity_regularizer": null, "bias_constraint": null, "bias_initializer": {"class_name": "Zeros", "config": {}}, "bias_regularizer": null, "data_format": "channels_last", "dilation_rate": [1, 1], "filters": 128, "kernel_constraint": null, "kernel_initializer": {"class_name": "VarianceScaling", "config": {"distribution": "uniform", "mode": "fan_avg", "scale": 1.0, "seed": null}}, "kernel_regularizer": null, "kernel_size": [3, 3], "name": "conv2d_500", "padding": "same", "strides": [1, 1], "trainable": true, "use_bias": true}}, 83563: OpenML Parameter
================
ID............: 83563
Flow ID.......: 8608
Flow Name.....: keras.wrappers.scikit_learn.KerasClassifier(Reshape,Conv2D,Conv2D,MaxPooling2D,BatchNormalization,Conv2D,Conv2D,MaxPooling2D,BatchNormalization,Conv2D,Conv2D,Conv2D,MaxPooling2D,BatchNormalization,Flatten,Dense,Dropout,Dense,Dropout,Dense)(2)_layer6
Flow URL......: https://www.openml.org/f/8608
Parameter Name: layer6
  |__Data Type: None
  |__Default..: {"class_name": "Conv2D", "config": {"activation": "relu", "activity_regularizer": null, "bias_constraint": null, "bias_initializer": {"class_name": "Zeros", "config": {}}, "bias_regularizer": null, "data_format": "channels_last", "dilation_rate": [1, 1], "filters": 128, "kernel_constraint": null, "kernel_initializer": {"class_name": "VarianceScaling", "config": {"distribution": "uniform", "mode": "fan_avg", "scale": 1.0, "seed": null}}, "kernel_regularizer": null, "kernel_size": [3, 3], "name": "conv2d_4", "padding": "same", "strides": [1, 1], "trainable": true, "use_bias": true}}
  |__Value....: {"class_name": "Conv2D", "config": {"activation": "relu", "activity_regularizer": null, "bias_constraint": null, "bias_initializer": {"class_name": "Zeros", "config": {}}, "bias_regularizer": null, "data_format": "channels_last", "dilation_rate": [1, 1], "filters": 128, "kernel_constraint": null, "kernel_initializer": {"class_name": "VarianceScaling", "config": {"distribution": "uniform", "mode": "fan_avg", "scale": 1.0, "seed": null}}, "kernel_regularizer": null, "kernel_size": [3, 3], "name": "conv2d_501", "padding": "same", "strides": [1, 1], "trainable": true, "use_bias": true}}, 83564: OpenML Parameter
================
ID............: 83564
Flow ID.......: 8608
Flow Name.....: keras.wrappers.scikit_learn.KerasClassifier(Reshape,Conv2D,Conv2D,MaxPooling2D,BatchNormalization,Conv2D,Conv2D,MaxPooling2D,BatchNormalization,Conv2D,Conv2D,Conv2D,MaxPooling2D,BatchNormalization,Flatten,Dense,Dropout,Dense,Dropout,Dense)(2)_layer7
Flow URL......: https://www.openml.org/f/8608
Parameter Name: layer7
  |__Data Type: None
  |__Default..: {"class_name": "MaxPooling2D", "config": {"data_format": "channels_last", "name": "max_pooling2d_2", "padding": "valid", "pool_size": [2, 2], "strides": [2, 2], "trainable": true}}
  |__Value....: {"class_name": "MaxPooling2D", "config": {"data_format": "channels_last", "name": "max_pooling2d_215", "padding": "valid", "pool_size": [2, 2], "strides": [2, 2], "trainable": true}}, 83565: OpenML Parameter
================
ID............: 83565
Flow ID.......: 8608
Flow Name.....: keras.wrappers.scikit_learn.KerasClassifier(Reshape,Conv2D,Conv2D,MaxPooling2D,BatchNormalization,Conv2D,Conv2D,MaxPooling2D,BatchNormalization,Conv2D,Conv2D,Conv2D,MaxPooling2D,BatchNormalization,Flatten,Dense,Dropout,Dense,Dropout,Dense)(2)_layer8
Flow URL......: https://www.openml.org/f/8608
Parameter Name: layer8
  |__Data Type: None
  |__Default..: {"class_name": "BatchNormalization", "config": {"axis": -1, "beta_constraint": null, "beta_initializer": {"class_name": "Zeros", "config": {}}, "beta_regularizer": null, "center": true, "epsilon": 0.001, "gamma_constraint": null, "gamma_initializer": {"class_name": "Ones", "config": {}}, "gamma_regularizer": null, "momentum": 0.99, "moving_mean_initializer": {"class_name": "Zeros", "config": {}}, "moving_variance_initializer": {"class_name": "Ones", "config": {}}, "name": "batch_normalization_2", "scale": true, "trainable": true}}
  |__Value....: {"class_name": "BatchNormalization", "config": {"axis": -1, "beta_constraint": null, "beta_initializer": {"class_name": "Zeros", "config": {}}, "beta_regularizer": null, "center": true, "epsilon": 0.001, "gamma_constraint": null, "gamma_initializer": {"class_name": "Ones", "config": {}}, "gamma_regularizer": null, "momentum": 0.99, "moving_mean_initializer": {"class_name": "Zeros", "config": {}}, "moving_variance_initializer": {"class_name": "Ones", "config": {}}, "name": "batch_normalization_215", "scale": true, "trainable": true}}, 83566: OpenML Parameter
================
ID............: 83566
Flow ID.......: 8608
Flow Name.....: keras.wrappers.scikit_learn.KerasClassifier(Reshape,Conv2D,Conv2D,MaxPooling2D,BatchNormalization,Conv2D,Conv2D,MaxPooling2D,BatchNormalization,Conv2D,Conv2D,Conv2D,MaxPooling2D,BatchNormalization,Flatten,Dense,Dropout,Dense,Dropout,Dense)(2)_layer9
Flow URL......: https://www.openml.org/f/8608
Parameter Name: layer9
  |__Data Type: None
  |__Default..: {"class_name": "Conv2D", "config": {"activation": "relu", "activity_regularizer": null, "bias_constraint": null, "bias_initializer": {"class_name": "Zeros", "config": {}}, "bias_regularizer": null, "data_format": "channels_last", "dilation_rate": [1, 1], "filters": 256, "kernel_constraint": null, "kernel_initializer": {"class_name": "VarianceScaling", "config": {"distribution": "uniform", "mode": "fan_avg", "scale": 1.0, "seed": null}}, "kernel_regularizer": null, "kernel_size": [3, 3], "name": "conv2d_5", "padding": "same", "strides": [1, 1], "trainable": true, "use_bias": true}}
  |__Value....: {"class_name": "Conv2D", "config": {"activation": "relu", "activity_regularizer": null, "bias_constraint": null, "bias_initializer": {"class_name": "Zeros", "config": {}}, "bias_regularizer": null, "data_format": "channels_last", "dilation_rate": [1, 1], "filters": 256, "kernel_constraint": null, "kernel_initializer": {"class_name": "VarianceScaling", "config": {"distribution": "uniform", "mode": "fan_avg", "scale": 1.0, "seed": null}}, "kernel_regularizer": null, "kernel_size": [3, 3], "name": "conv2d_502", "padding": "same", "strides": [1, 1], "trainable": true, "use_bias": true}}, 83567: OpenML Parameter
================
ID............: 83567
Flow ID.......: 8608
Flow Name.....: keras.wrappers.scikit_learn.KerasClassifier(Reshape,Conv2D,Conv2D,MaxPooling2D,BatchNormalization,Conv2D,Conv2D,MaxPooling2D,BatchNormalization,Conv2D,Conv2D,Conv2D,MaxPooling2D,BatchNormalization,Flatten,Dense,Dropout,Dense,Dropout,Dense)(2)_verbose
Flow URL......: https://www.openml.org/f/8608
Parameter Name: verbose
  |__Data Type: None
  |__Default..: 2
  |__Value....: 2}]
            
--------------------------------------------------------------------------------
